…
ain.Optimizer is deprecated. Please use tf.compat.v1.train.Optimizer instead.\n","\n","W0824 20:32:07.141348 140493301618560 deprecation_wrapper.py:119] From /usr/local/lib/python3.6/dist-packages/keras/backend/tensorflow_backend.py:3295: The name tf.log is deprecated. Please use tf.math.log instead.\n","\n"],"name":"stderr"},{"output_type":"stream","text":["_________________________________________________________________\n","Layer (type)                 Output Shape              Param #   \n","=================================================================\n","conv2d_1 (Conv2D)            (None, 24, 24, 30)        780       \n","_________________________________________________________________\n","max_pooling2d_1 (MaxPooling2 (None, 12, 12, 30)        0         \n","_________________________________________________________________\n","dropout_1 (Dropout)          (None, 12, 12, 30)        0         \n","_________________________________________________________________\n","conv2d_2 (Conv2D)            (None, 10, 10, 15)        4065      \n","_________________________________________________________________\n","max_pooling2d_2 (MaxPooling2 (None, 5, 5, 15)          0         \n","_________________________________________________________________\n","dropout_2 (Dropout)          (None, 5, 5, 15)          0         \n","_________________________________________________________________\n","flatten_1 (Flatten)          (None, 375)               0         \n","_________________________________________________________________\n","dense_1 (Dense)              (None, 500)               188000    \n","_________________________________________________________________\n","dense_2 (Dense)              (None, 10)                5010      \n","=================================================================\n","Total params: 197,855\n","Trainable params: 197,855\n","Non-trainable params: 0\n","_________________________________________________________________\n","None\n"],"name":"stdout"}]},{"cell_type":"code","metadata":{"id":"bXhyi03e4qjP","colab_type":"code","outputId":"f85bc347-8d40-47ce-a712-179591c048e3","executionInfo"
…
